刘二PyTorchLearingCode/lstm.pth (torch, 278847 bytes, 5 tensors)

lstm_layer.weight_ih_l0 f4 [512, 5]
0.05706656 -0.0713266 0.05923928 -0.07264919 -0.058383036 -0.010418347 0.02222995 0.065283954
0.038105503 -0.033148374 -0.06774731 0.037415285 0.08250848 -0.07238804 -0.019409362 -0.09123851
-0.054212183 -0.06868804 -0.07621276 -0.014908641 0.03417242 0.010107809 0.090811774 -0.05853068
0.09286054 0.05270877 0.043845225 0.059484072 -0.07242889 -0.040436003 0.027895221 0.014712919
-0.017687038 0.091083586 -0.006961165 0.016500726 0.053421445 -0.07133186 -0.048936706 -0.08310088
0.07986601 -0.020849314 -0.038234375 0.101699896 -0.027774695 0.0005342278 -0.010829777 -0.051448636
0.0031070106 -0.047823474 0.013840853 0.029136267 0.021197837 0.03377902 -0.049358588 -0.042751446
-0.018977735 -0.012179274 -0.024506154 -0.07378078 -0.0054602507 -0.051701088 -0.011258253 0.101189554
-0.02326812 -0.015753679 -0.04362545 0.03177886 0.04802992 -0.04772667 -0.05649709 0.032362785
0.02742092 -0.0967283 0.0559499 0.031023858 0.04811353 -0.10270936 -0.020448705 0.019279903
-0.03691564 0.08814367 0.076096684 0.043235082 0.07493413 -0.028182268 0.02926709 0.09987285
0.024006428 -0.015697382 0.058596596 0.07677508 -0.0347461 0.018159747 -0.093883924 0.04755042
-0.0555476 -0.07016895 -0.09614169 0.057279956 -0.034203224 0.02213178 -0.02265852 0.08201309
0.068908766 -0.047751665 -0.032927845 -0.03790224 0.004809355 -0.054033104 0.023793168 -0.019355964
-0.05912892 -0.071080364 -0.027299251 0.06384596 0.048233304 -0.05752572 -0.0058399397 0.099891655
0.055697054 -0.04421397 0.04845586 -0.08529251 0.062557936 -0.018590806 -0.0068474356 0.061783113
0.003794979 0.071057126 -0.03627801 0.096086144 0.020303458 0.07225891 -0.0021128005 -0.0071356855
-0.008919252 0.032357812 -0.08328941 0.026999766 0.046535667 0.036495246 -0.010338407 -0.05286033
0.08334836 -0.08393958 -0.09335671 -0.086021 0.035759874 0.05388163 -0.026476264 -0.019161282
-0.06537438 -0.025244568 -0.02455231 -0.05467213 -0.06592809 -0.076160684 -0.03807917 -0.014688501
-0.06723786 -0.012416933 -0.023198683 0.008375781 -0.03587099 -0.06779255 -0.010040093 -0.043237258
0.049857322 0.07440643 0.002931575 -0.027936475 0.094892055 0.0050637797 0.032481216 -0.05204271
0.0024050248 0.04582502 -0.055742968 -0.049098827 -0.07272545 0.025084045 -0.0664195 0.018454364
-0.012501714 0.09019058 0.0869152 0.026529728 0.05727746 -0.084141694 0.0012123015 -0.010082366
-0.07111584 0.07170675 0.09522672 0.06626939 0.07918331 0.05830552 0.007718605 0.06351472
0.07872988 -0.05652403 -0.049952094 -0.07557848 0.017774913 -0.070980735 -0.069569856 -0.09493651
-0.024089731 -0.057150837 -0.06917048 -0.06541219 -0.039686423 -0.059276205 0.012468523 0.051848978
-0.08559537 -0.027624752 -0.012639897 0.0029782818 -0.050875384 -0.0863653 -0.022827739 0.05003566
-0.08447454 0.07613062 -0.062366027 -0.057720367 -0.06803273 0.07765075 -0.06798521 -0.08594079
0.07056642 -0.09562968 -0.033154547 0.05805689 -0.016921595 -0.04948161 0.08725946 0.0784222
-0.002927814 -0.09270285 -0.09110684 0.0023294843 0.01304976 0.0668993 0.08602497 0.07902756
-0.058586117 0.0067125084 -0.06983318 0.095172554 0.020418284 0.06586845 -0.064536266 0.077214986
00000000: a0be 693d ae13 92bd e3a4 723d 19c9 94bd
00000010: 0d23 6fbd b7b1 2abc 961b b63c 98b3 853d
00000020: 8414 1c3d 97c6 07bd 1abf 8abd c540 193d
00000030: 35fa a83d 2e40 94bd 6200 9fbc 42db babd
00000040: 980d 5ebd 51ac 8cbd 6f15 9cbd 5f43 74bc
00000050: 61f8 0b3d 399b 253c 86fb b93d debd 6fbd
00000060: ab2d be3d 27e5 573d 0d97 333d 92a5 733d
00000070: 9955 94bd 39a0 25bd 8584 e43c 740e 713c
00000080: 68e4 90bc 088a ba3d 7c1a e4bb 882c 873c
00000090: 72d0 5a3d 7016 92bd db71 48bd cb30 aabd
000000a0: ca90 a33d 2ecc aabc a69b 1cbd 0948 d03d
000000b0: c287 e3bc 6c0b 0c3a 616f 31bc cebb 52bd
000000c0: fd9e 4b3b 8ce2 43bd bfc4 623c 2eaf ee3c
000000d0: 16a7 ad3c df5b 0a3d 3b2c 4abd 241c 2fbd
000000e0: 3277 9bbc 948b 47bc 21c1 c8bc 611a 97bd
000000f0: e7eb b2bb 85c4 53bd 8974 38bc 783c cf3d
00000100: c99c bebc dc0d 81bc 9ab0 32bd 8d2a 023d
00000110: 05bb 443d 0a7d 43bd 7e69 67bd d78e 043d
00000120: d6a1 e03c 7d19 c6bd b92b 653d bf25 fe3c
00000130: b112 453d 4959 d2bd 0b84 a7bc e3f0 9d3c
00000140: db34 17bd ab84 b43d 94d8 9b3d 4517 313d
00000150: 1177 993d 80de e6bc 89c1 ef3c 238a cc3d
00000160: 21a9 c43c cc97 80bc fc02 703d 413c 9d3d
00000170: ed51 0ebd c0c3 943c 3746 c0bd 3bc4 423d
00000180: e185 63bd bdb4 8fbd efe5 c4bd 639e 6a3d
00000190: ae18 0cbd b54d b53c 5c9e b9bc 7bf6 a73d
000001a0: 0a20 8d3d 4097 43bd 59df 06bd 613f 1bbd
000001b0: cb97 9d3b d151 5dbd e4e9 c23c 6690 9ebc
000001c0: 2b31 72bd 9592 91bd aea2 dfbc acc1 823d
000001d0: 4990 453d 17a0 6bbd f75c bfbb ff93 cc3d
000001e0: 9822 643d b519 35bd a779 463d d7ad aebd
000001f0: 601e 803d bf4b 98bc 7460 e0bb 4a10 7d3d
00000200: 2fb5 783b 6686 913d 4098 14bd d0c8 c43d
00000210: 7053 a63c 7bfc 933d e976 0abb 78d2 e9bb
00000220: 0e22 12bc a089 043d a393 aabd 9d2e dd3c
00000230: 2f9c 3e3d 0a7c 153d 6c62 29bc 1384 58bd
00000240: 8cb2 aa3d 84e8 abbd ce31 bfbd c72b b0bd
00000250: f278 123d fcb2 5c3d c0e4 d8bc 1ff8 9cbc
00000260: 01e3 85bd b2cd cebc ed21 c9bc e2ef 5fbd
00000270: 4e05 87bd 22fa 9bbd e7f8 1bbd 0aa8 70bc
00000280: 01b4 89bd 6470 4bbc 2a0b bebc 923a 093c
00000290: 76ed 12bd d2d6 8abd 347f 24bc 8d19 31bd
000002a0: 3137 4c3d 6662 983d ab1f 403b 09db e4bc
000002b0: c456 c23d 10ee a53b 060b 053d bd2a 55bd
000002c0: 9f9d 1d3b 04b3 3b3d bd52 64bd da1b 49bd
000002d0: 15f1 94bd 0e7d cd3c f206 88bd 9b2d 973c
000002e0: fdd3 4cbc d7b5 b83d 9900 b23d df54 d93c
000002f0: c59b 6a3d 7b52 acbd 17e6 9e3a 8230 25bc
00000300: 2ea5 91bd fdda 923d 3a06 c33d 3fb8 873d
00000310: dc2a a23d c5d1 6e3d 5aec fc3b 0114 823d
00000320: 223d a13d be85 67bd 919a 4cbd e4c8 9abd
00000330: b29c 913c 595e 91bd a47a 8ebd 136e c2bd
00000340: d457 c5bc ff16 6abd 41a9 8dbd d4f6 85bd
00000350: 3b8e 22bd 9bcb 72bd c748 4c3c 985f 543d
00000360: a04c afbd 4e4d e2bc 9217 4fbc 472f 433b
00000370: b562 50bd 4ae0 b0bd 3d01 bbbc 31f2 4c3d
00000380: fd00 adbd 5fea 9b3d 8573 7fbd 316c 6cbd
00000390: be54 8bbd 5b07 9f3d d43b 8bbd ba01 b0bd
000003a0: 2185 903d 7ed9 c3bd 10cd 07bd 10cd 6d3d
000003b0: 289f 8abc 3bad 4abd 16b5 b23d d29b a03d
000003c0: 91e0 3fbb feda bdbd 3996 babd 43aa 183b
000003d0: a9ce 553c 8002 893d dc2d b03d 34d9 a13d
000003e0: fff7 6fbd 9af4 db3b b304 8fbd d4e9 c23d
000003f0: 3f44 a73c 0ae6 863d 972b 84bd e422 9e3d

lstm_layer.weight_hh_l0 f4 [512, 128]
0.004627924 -0.035426147 -0.07125462 0.012519677 -0.033855826 0.006990905 -0.05030751 -0.0014459068
0.004266034 -0.024538636 0.0082474165 -0.08673165 -0.07845191 0.008975977 -0.03695845 -0.011875064
-0.069733955 0.10346941 -0.03643158 0.057326015 0.07056297 -0.01726198 0.04632556 0.019154398
-0.031754356 0.022234073 -0.06703596 0.066339746 0.079981565 -0.07073413 0.012876993 0.05167369
-0.034940206 0.014599387 0.07785768 0.031678256 0.05805383 0.0944511 0.07645239 -0.09317513
0.0054228264 0.046471886 0.013807251 0.0966289 0.012360152 0.0520472 -0.07031701 0.03312664
0.07004865 -0.029138196 -0.04831636 -0.0110791065 -0.08678621 -0.100187756 -0.04143395 0.06041331
-0.03667998 0.014299348 0.0587284 -0.016975615 -0.0033854542 -0.066806026 0.064185254 0.017277474
-0.09737754 -0.05117642 -0.0864475 0.05276318 -0.09680108 -0.021801386 -0.09946815 0.018294409
0.055635188 -0.067813575 -0.0436712 0.06906164 -0.013477252 -0.061368786 0.007941282 -0.0526773
0.07956529 -0.104646824 0.0077435835 0.010020337 -0.09267762 0.07859564 -0.04685467 -0.032541078
-0.07351472 -0.013437955 -0.030469071 -0.052567065 -0.033490088 0.047492724 0.022862876 -0.015846826
-0.08116566 0.004997739 0.033084936 -0.023800442 0.058852535 0.04400217 0.098169476 0.026607206
-0.05867515 0.009377811 -0.053367183 -0.03920902 0.020298623 -0.037154537 0.005229404 0.06408231
0.0036890553 -0.09473002 0.039978873 -0.10139617 -0.013387039 0.08803754 0.019840676 -0.065377265
-0.056672636 0.047845736 -0.092028536 0.04684777 0.04487039 -0.058159437 0.07912888 0.025854547
0.000849211 -0.014558947 0.064981274 0.059117302 0.06832744 -0.027559739 -0.012200618 0.03570016
0.040597532 0.03872329 -0.07606171 -0.102162465 -0.08302375 0.029017402 -0.08552342 -0.056038212
-0.078551546 0.04557255 0.060450315 0.09134453 -0.08110614 0.055652488 -0.06643115 0.00775904
0.064647734 -0.030753145 0.0020136784 0.07113444 0.051611252 0.058159295 -0.05508597 -0.025237136
0.05397337 0.096620806 0.0065846695 0.09213295 -0.031768315 0.05000573 0.09671064 0.07438847
0.06900013 -0.056179006 -0.037245158 0.094224714 0.10311192 -0.069835834 -0.062110614 0.097271875
0.054472942 -0.009003192 0.051722415 0.06729852 -0.057322074 -0.04997091 -0.0062785624 0.05288349
-0.0045938245 0.05120235 -0.080870666 0.03624907 0.001395171 0.0559978 -0.009951424 -0.0212767
-0.08002538 0.074173935 0.048826005 0.01245373 -0.021633865 -0.0666026 -0.019509833 0.03324918
-0.029907487 -0.066632345 0.04669064 -0.053776093 0.062015444 -0.052727923 -0.040578693 0.02435258
-0.07953941 0.048418432 0.02764111 -0.040195335 -0.07894831 -0.0691297 -0.03705667 0.09438966
0.028292105 0.050525095 -0.040914387 0.10161714 -0.013983968 0.043151475 -0.07480285 -0.015162633
-0.064900815 -0.09108526 0.07461885 -0.038662363 0.019666236 0.07057661 -0.063311875 -0.072110906
0.03703287 0.04097678 -0.07547058 0.06200052 0.06058945 0.014361572 -0.024223197 0.051190335
0.037157394 -0.02834103 -0.049396995 -0.097788274 0.038221914 0.07614192 0.080887325 -0.018928077
-0.044059347 0.0125847 0.06017739 0.059488297 -0.08475024 -0.05286333 -0.059489105 0.08592457
00000000: d7a5 973b 021b 11bd f1ed 91bd 551f 4d3c
00000010: 68ac 0abd f613 e53b 3f0f 4ebd 9584 bdba
00000020: 16ca 8b3b 4005 c9bc 2c20 073c 5da0 b1bd
00000030: 65ab a0bd fa0f 133c be61 17bd a18f 42bc
00000040: add0 8ebd c5e7 d33d 4839 15bd afce 6a3d
00000050: 5283 903d ff68 8dbc dfbf 3d3d afe9 9c3c
00000060: db10 02bd 3b24 b63c 264a 89bd 22dd 873d
00000070: 60cd a33d 0edd 90bd 06fa 523c cba7 533d
00000080: 761d 0fbd 4432 6f3c d973 9f3d 0fc1 013d
00000090: dac9 6d3d 946f c13d 1293 9c3d 9ad2 bebd
000000a0: f7b1 b13b 4e59 3e3d cf37 623c 5fe5 c53d
000000b0: 3c82 4a3c 722f 553d 5d02 90bd cdaf 073d
000000c0: ab75 8f3d 3ab3 eebc 60e7 45bd 2485 35bc
000000d0: f8bc b1bd 3d2f cdbd a5b6 29bd f273 773d
000000e0: bf3d 16bd d047 6a3c 318d 703d 7210 8bbc
000000f0: 7fde 5dbb 99d1 88bd 8f73 833d 7d89 8d3c
00000100: e06d c7bd 5e9e 51bd 630b b1bd 341e 583d
00000110: a53f c6bd d298 b2bc f5b5 cbbd 28de 953c
00000120: b9e1 633d d8e1 8abd 92e0 32bd 3070 8d3d
00000130: b1cf 5cbc d65d 7bbd 271c 023c 27c4 57bd
00000140: 20f3 a23d 1351 d6bd e3bd fd3b 572c 243c
00000150: c4cd bdbd c0f6 a03d afea 3fbd cb49 05bd
00000160: e38e 96bd de2a 5cbc 469a f9bc 9050 57bd
00000170: e72c 09bd bb87 423d ed4a bb3c 34d1 81bc
00000180: 2e3a a6bd 13c4 a33b 1284 073d 25f9 c2bc
00000190: 5b0f 713d 9f3b 343d 140d c93d 5bf7 d93c
000001a0: 5b55 70bd 64a5 193c 8c97 5abd a399 20bd
000001b0: 4c49 a63c 5b2f 18bd 6c5b ab3b 963d 833d
000001c0: 14c4 713b d001 c2bd e3c0 233d cca8 cfbd
000001d0: 5055 5bbc 074d b43d ea88 a23c 84e4 85bd
000001e0: 9121 68bd e4f9 433d 7579 bcbd 73e3 3f3d
000001f0: 04ca 373d 9738 6ebd 520e a23d eacc d33c
00000200: 969d 5e3a a688 6ebc e714 853d fc24 723d
00000210: 42ef 8b3d f6c4 e1bc 1ae5 47bc 553a 123d
00000220: 9949 263d 509c 1e3d 3ec6 9bbd 8e3a d1bd
00000230: 5b08 aabd e7b5 ed3c e726 afbd 5388 65bd
00000240: a2df a0bd 48aa 3a3d c09a 773d d712 bb3d
00000250: fa1a a6bd ddf3 633d 0e0d 88bd 8c3f fe3b
00000260: 0866 843d 05ee fbbc ebf7 033b efae 913d
00000270: 5266 533d 7138 6e3d d3a1 61bd 1cbe cebc
00000280: 2e13 5d3d 21e1 c53d 36c4 d73b 33b0 bc3d
00000290: 7e1f 02bd cfd2 4c3d 3a10 c63d fb58 983d
000002a0: f14f 8d3d f51b 66bd 618e 18bd e3f8 c03d
000002b0: 582c d33d 1706 8fbd b367 7ebd 7a36 c73d
000002c0: 051f 5f3d 2082 13bc e2da 533d ced3 893d
000002d0: 8dca 6abd 4cae 4cbd 66bc cdbb 5c9c 583d
000002e0: cb87 96bb 8eb9 513d 859f a5bd e879 143d
000002f0: 2cde b63a f35d 653d 4c0b 23bc 794c aebc
00000300: 59e4 a3bd 81e8 973d c7fd 473d bb0a 4c3c
00000310: 8139 b1bc f266 88bd 16d3 9fbc 4b30 083d
00000320: 8c00 f5bc 8a76 88bd af3e 3f3d 5244 5cbd
00000330: e803 7e3d 3cf9 57bd d835 26bd 107f c73c
00000340: 8fe5 a2bd 6852 463d 9c6f e23c dda3 24bd
00000350: a7af a1bd df93 8dbd bcc8 17bd 5e4f c13d
00000360: d8c4 e73c 67f3 4e3d d895 27bd a61c d03d
00000370: 031d 65bc 9abf 303d 3d32 99bd b16c 78bc
00000380: b8ea 84bd e98a babd c5d1 983d 6d5c 1ebd
00000390: 161b a13c 788a 903d a8a9 81bd e2ae 93bd
000003a0: c7af 173d 45d7 273d 5290 9abd 42f4 7d3d
000003b0: a52c 783d cd4c 6b3c ba6f c6bc f5ac 513d
000003c0: 5a32 183d 732b e8bc 8154 4abd 3845 c8bd
000003d0: 958e 1c3d 4cf0 9b3d 41a8 a53d 0e0f 9bbc
000003e0: 9377 34bd 0f30 4e3c 917c 763d 00aa 733d
000003f0: 8991 adbd 3887 58bd d9aa 73bd 39f9 af3d

lstm_layer.bias_ih_l0 f4 [512]
-0.042908564 -0.044704776 -0.012003877 -0.08759698 -0.011715719 0.08823985 0.014246158 0.06578793
0.040239073 -0.05261787 -0.03873556 -0.079095826 -0.010143511 -0.055832926 -0.0090828175 0.0029460143
0.00048005657 0.091309 0.025463535 -0.030090237 0.08490412 0.011943982 -0.04550731 -0.056660913
0.04158145 0.032175235 -0.052901257 -0.057989076 0.09111765 0.053264957 0.032224953 -0.09290211
-0.04438376 0.050599862 -0.00914258 -0.053704724 -0.017649103 -0.027946044 0.0030777578 0.02398755
0.08295189 0.049529172 0.059993874 0.07114908 -0.042907376 0.047410548 -0.047397643 0.09145964
0.06917086 -0.011213228 0.07542983 0.08172786 0.02268558 -0.05726234 -0.082986616 0.051008124
0.056788508 0.06347623 0.037779454 -0.06592008 -0.038387746 0.039501566 -0.0701527 0.063640006
0.02391412 0.06573831 0.073048376 0.03558703 0.0004114175 -0.06402762 -0.060024623 0.019897413
0.064163975 -0.0058425097 0.07978204 -0.054365747 -0.038772654 0.05537907 -0.026906405 -0.0344808
-0.021042988 -0.07324662 0.010100508 0.07533934 0.0007752684 0.059625447 -0.07170686 -0.060069695
0.027062837 0.078193344 -0.038015645 -0.06522975 0.0033755584 0.032966983 -0.0033207631 0.045603946
-0.0777672 0.001771536 0.06557968 -0.025833223 -0.056790814 0.04567171 -0.023055 0.01944566
-0.09178777 -0.036757104 0.004591757 0.034359884 0.029204959 -0.03806491 0.0064744307 -0.006250142
0.077007204 -0.03050826 0.092773676 0.05991097 0.03652128 -0.0103518255 -0.019482639 0.010559048
-0.027650476 -0.00475107 -0.002841797 0.0026895578 0.04175233 0.09784588 0.078692466 -0.027973142
-0.02980495 -0.03308027 0.023387026 0.02112718 0.054740407 -0.07139363 0.02788742 0.0494658
0.017055368 0.049573254 0.09406941 0.04059298 0.046990734 0.041623726 -0.094065234 0.0012201073
-0.008888548 0.029703923 0.021181887 -0.10008756 -0.045279652 0.08530454 -0.06473964 0.03152994
0.049622275 -0.05744185 0.030197682 0.00810858 -0.06950269 0.026485054 -0.048983406 0.07284799
-0.049751602 0.07268774 0.051414583 -0.030608801 -0.010877338 0.07334798 -0.0709032 -0.0021339562
-0.027052794 -0.022668801 0.0064556724 -0.061910827 -0.042332996 -0.022221118 0.008902323 0.085244976
0.0326119 0.10005786 -0.04796921 0.041104596 -0.05919903 -0.031789158 -0.05437225 0.093950555
0.09101042 -0.0067432127 -0.037377264 -0.023461686 0.024915313 -0.07118426 0.079081826 0.048366264
-0.06771693 0.043551646 -0.073094904 -0.020489952 -0.026956659 -0.0018937843 0.06655944 0.08911256
0.08998569 0.052205555 0.04691501 -0.035515055 0.0819188 0.04211384 -0.07751662 -0.04374469
0.009722442 -0.00025903247 0.042169873 0.011635555 -0.04401667 0.024689801 -0.049762137 -0.041078683
-0.052315485 -0.012696346 0.0939754 0.05370951 0.10078633 0.041351017 -0.02859588 0.007853345
0.035982635 0.043665342 -0.06734971 -0.050975736 -0.059131335 -0.004535113 0.07593986 -0.04863142
-0.025166461 -0.0125085795 0.04675797 -0.06692374 -0.0022150753 0.03798022 -0.054827802 -0.0180334
0.021029143 0.05115449 -0.058947526 0.044105787 0.01310215 0.010157478 0.06330911 0.061037507
0.07375147 0.091744736 -0.039680794 -0.08971079 -0.06225307 0.01348778 0.04357862 0.01060899
00000000: e4c0 2fbd 5b1c 37bd e9ab 44bc 0c66 b3bd
00000010: 49f3 3fbc 18b7 b43d b868 693c d2bb 863d
00000020: bad1 243d d685 57bd 2ea9 1ebd fefc a1bd
00000030: f830 26bc 11b1 64bd 19d0 14bc eb11 413b
00000040: 1ab0 fb39 3700 bb3d e798 d03c cd7f f6bc
00000050: 36e2 ad3d b1b0 433c e065 3abd 4615 68bd
00000060: 4f51 2a3d 2eca 033d fdae 58bd f485 6dbd
00000070: e49b ba3d 5b2c 5a3d 50fe 033d 7643 bebd
00000080: bfcb 35bd cd41 4f3d c3ca 15bc 7cf9 5bbd
00000090: da94 90bc 1aef e4bc 35b4 493b 8a81 c43c
000000a0: aee2 a93d 1adf 4a3d 23bc 753d 9cb6 913d
000000b0: a5bf 2fbd 9031 423d 0824 42bd 314f bb3d
000000c0: 74a9 8d3d b0b7 37bc f47a 9a3d f060 a73d
000000d0: 1cd7 b93c ea8b 6abd e3f4 a9bd e5ed 503d
000000e0: 119b 683d d3ff 813d a1be 1a3d 1b01 87bd
000000f0: 783c 1dbd 65cc 213d 38ac 8fbd b155 823d
00000100: 8be7 c33c cfa1 863d 639a 953d b5c3 113d
00000110: 86b3 d739 ea20 83bd 61dc 75bd e6ff a23c
00000120: 6768 833d 8672 bfbb c464 a33d 9eae 5ebd
00000130: 13d0 1ebd 2ad5 623d d26a dcbc bd3b 0dbd
00000140: 5862 acbc 5302 96bd 9a7c 253c 834b 9a3d
00000150: 623b 4b3a d039 743d 0cdb 92bd a40b 76bd
00000160: e2b2 dd3c d523 a03d 4bb6 1bbd 2d97 85bd
00000170: 7938 5d3b 6308 073d 29a1 59bb 34cb 3a3d
00000180: 6944 9fbd e232 e83a a44e 863d 32a0 d3bc
00000190: 7c9d 68bd 4212 3b3d d7dd bcbc 814c 9f3c
000001a0: 3afb bbbd 9e8e 16bd 7376 963b f3bc 0c3d
000001b0: 3d3f ef3c f3e9 1bbd 7627 d43b fecd ccbb
000001c0: f4b5 9d3d 75ec f9bc 2000 be3d 3565 753d
000001d0: 5697 153d b49a 29bc 0e9a 9fbc dbff 2c3c
000001e0: 4083 e2bc ddae 9bbb 713d 3abb 4b43 303b
000001f0: 7e04 2b3d 6c63 c83d 8429 a13d ee27 e5bc
00000200: 8329 f4bc 2d7f 07bd 2696 bf3c e812 ad3c
00000210: 7a37 603d d336 92bd 2974 e43c a79c 4a3d
00000220: b3b7 8b3c 530d 4b3d 76a7 c03d d344 263d
00000230: 5b79 403d a47d 2a3d 46a5 c0bd 02ec 9f3a
00000240: 46a1 11bc a455 f33c a385 ad3c b5fa ccbd
00000250: 2877 39bd 26b4 ae3d 3796 84bd 8a25 013d
00000260: ba40 4b3d 2548 6bbd 2161 f73c d9d9 043c
00000270: 6d57 8ebd 2ff7 d83c d3a2 48bd 5431 953d
00000280: 56c8 4bbd 4fdd 943d 1998 523d 4fbf fabc
00000290: dd36 32bc 7737 963d b235 91bd d8d9 0bbb
000002a0: d29d ddbc ecb3 b9bc 1b8a d33b 3596 7dbd
000002b0: 5d65 2dbd 1009 b6bc 0ddb 113c eb94 ae3d
000002c0: 0e94 053d 23eb cc3d 5d7b 44bd 4b5d 283d
000002d0: af7a 72bd 5935 02bd 70b5 5ebd 2669 c03d
000002e0: ac63 ba3d 2bf6 dcbb e718 19bd b932 c0bc
000002f0: 331b cc3c 0ec9 91bd a7f5 a13d b41b 463d
00000300: 2caf 8abd 3663 323d c8b2 95bd 8bda a7bc
00000310: 36d4 dcbc db38 f8ba 5150 883d a580 b63d
00000320: 6b4a b83d 7ed5 553d f429 403d 3c78 11bd
00000330: 0bc5 a73d 907f 2c3d 09c1 9ebd a22d 33bd
00000340: e14a 1f3c c0ce 87b9 51ba 2c3d 0ea3 3e3c
00000350: d34a 34bd 4442 ca3c 62d3 4bbd 1f42 28bd
00000360: c348 56bd 5604 50bc 2d76 c03d 81fe 5b3d
00000370: 1069 ce3d af5f 293d e841 eabc 51ab 003c
00000380: 8762 133d 6eda 323d a5ee 89bd efcb 50bd
00000390: b333 72bd 499b 94bb 5b86 9b3d bd31 47bd
000003a0: e529 cebc c9f0 4cbc 4985 3f3d 500f 89bd
000003b0: cc2a 11bb 2691 1b3d 1e93 60bd c8ba 93bc
000003c0: 4f45 ac3c 5f87 513d f672 71bd 45a8 343d
000003d0: 66aa 563c 8d6b 263c 35a8 813d 7702 7a3d
000003e0: 030b 973d aae4 bb3d 5488 22bd 4aba b7bd
000003f0: 13fd 7ebd d9fb 5c3c 7f7f 323d 54d1 2d3c

lstm_layer.bias_hh_l0 f4 [512]
0.008426646 0.042032916 0.034493797 0.025728062 0.012224845 0.019380864 0.04735851 -0.085377984
-0.0107828975 -0.04499869 -0.0499611 -0.0001752087 -0.058864865 0.05204582 -0.031475034 -0.103978306
0.021594929 -0.039064467 0.00057967997 -0.07350601 0.034675784 -0.06968085 0.0046639126 -0.059854984
-0.03087588 0.05392873 -0.068814784 0.016730763 0.025258008 0.0041857166 -0.03034214 -0.09372927
0.069695994 -0.004726659 -0.031476118 0.06385493 0.09471246 0.03359087 0.08871638 0.075017825
0.07996574 -0.06785062 -0.04100463 0.01618644 -0.024493068 0.045964986 -0.013090692 0.06689452
0.036159825 0.08016199 0.058346547 0.0005665608 -0.08433471 0.028145922 -0.09603261 0.016483014
-0.019415312 0.09042271 0.007067848 0.059527904 0.03753102 0.06143941 0.01524712 0.050069902
-0.024612982 0.08905882 0.09186043 0.03061786 -0.05012848 0.0040028635 -0.058290895 0.047874063
-0.02028362 -0.018869687 -0.0051622554 -0.07249905 0.052517623 0.075762145 -0.03627227 -0.097999886
-0.032580256 -0.077809244 0.048702464 -0.0032318393 0.019326774 -0.08866302 -0.006128331 0.003475035
-0.024077112 0.08400563 0.06406306 0.011033505 0.07413554 -0.056822006 0.013527107 -0.038523037
-0.015592784 0.003504848 -0.09512845 0.033126615 -0.07302421 0.093741074 -0.014636764 0.022285646
-0.09952272 0.028930543 0.041310817 0.094163544 0.023641955 -0.026345985 0.079343505 -0.06123588
0.0019263051 0.09146133 -0.050727967 -0.053630218 -0.0054982277 0.102956 -0.029102813 0.029478012
-0.01871909 -0.06845375 -0.060429014 -0.022053313 -0.05951933 0.00768689 0.09522813 0.08362942
0.104419686 0.082174614 -0.049402364 0.024881579 0.050621964 -0.06907187 -0.049407452 0.042721402
-0.006955403 -0.04800879 -0.054389525 -0.01639749 0.005799116 0.07100755 0.06872318 0.047982413
0.035826977 0.015397291 0.030518409 -0.07622411 0.015974531 -0.012627704 -0.01565594 -0.030626616
-0.049512334 -0.060740184 0.073965795 0.07946961 0.07834613 0.07148761 -0.041922566 -0.07310876
-0.005851627 -0.03542241 0.04624254 0.038799416 0.0025507489 -0.05400164 0.023639955 0.04451796
0.03468653 0.07183752 -0.045670472 0.014885805 0.05261757 0.092808545 -0.015804825 -0.07141449
0.027433226 0.06094938 -0.057552304 -0.019804547 -0.08906992 -0.071278706 -0.044599622 0.04729542
0.058719423 -0.0009357949 0.062165927 0.0054514427 -0.0392845 0.038283315 -0.055889077 0.09929476
-0.07348919 -0.044278484 -0.01842969 -0.032835912 0.002837836 -0.02276666 -0.09113138 0.060153402
0.0077226744 -0.01783757 0.010470993 -0.03401168 0.03184724 0.011572049 0.071078554 0.06357859
0.035812616 -0.080994874 -0.011746161 -0.00435021 0.042168535 -0.06535322 -0.07249964 0.031135442
-0.0046180654 0.091378644 -0.06484536 0.057739176 0.03443085 0.059004273 -0.022342179 -0.021980064
0.010681805 -0.033842772 -0.021755861 0.075120434 0.01921934 0.016324311 0.0712595 -0.00658142
0.0376291 0.037739757 -0.07581815 0.038443696 -0.07571166 -0.03621485 -5.6111196e-05 -0.056210328
0.027130464 0.055850822 0.047086015 0.059520487 0.049542475 0.01848075 -0.060302608 -0.053289074
0.0107038235 -0.057505067 0.04508932 -0.07469591 0.062419564 -0.026510943 0.06897526 -0.035240773
00000000: ea0f 0a3c b52a 2c3d 5e49 0d3d a8c3 d23c
00000010: b74a 483c 9ec4 9e3c fffa 413d a7da aebd
00000020: c0aa 30bc 8c50 38bd 03a4 4cbd 3ab8 37b9
00000030: 491c 71bd ff2d 553d f7eb 00bd 94f2 d4bd
00000040: d9e7 b03c 1002 20bd aaf5 173a 528a 96bd
00000050: 3208 0e3d d5b4 8ebd bcd3 983b 802a 75bd
00000060: 6aef fcbc 5fe4 5c3d c4ee 8cbd f40e 893c
00000070: e2e9 ce3c 5628 893b 1490 f8bc 22f5 bfbd
00000080: c6bc 8e3d 17e2 9abb 1aed 00bd 60c6 823d
00000090: 9bf8 c13d 9596 093d efb0 b53d f2a2 993d
000000a0: 14c5 a33d 44f5 8abd 79f4 27bd 6d99 843c
000000b0: b0a5 c8bc c845 3c3d 587a 56bc feff 883d
000000c0: 531c 143d f82b a43d cafc 6e3d 4085 143a
000000d0: adb7 acbd 4792 e63c bfac c4bd 6307 873c
000000e0: dc0c 9fbc 8b2f b93d 6899 e73b 88d3 733d
000000f0: 20ba 193d e4a7 7b3d 0ecf 793c 1916 4d3d
00000100: 2aa1 c9bc 7864 b63d 5221 bc3d 4ed2 fa3c
00000110: 8553 4dbd 742a 833b 6fc2 6ebd 9817 443d
00000120: d629 a6bc 9a94 9abc 2328 a9bb 627a 94bd
00000130: b81c 573d 2f29 9b3d 3b92 14bd 2ab4 c8bd
00000140: e072 05bd 745a 9fbd 3c7c 473d 44cd 53bb
00000150: 2f53 9e3c f594 b5bd 2bd0 c8bb 6abd 633b
00000160: 5d3d c5bc 250b ac3d 7e33 833d e0c5 343c
00000170: 60d4 973d 31be 68bd cda0 5d3c 55ca 1dbd
00000180: e078 7fbc 98b1 653b b4d2 c2bd c6af 073d
00000190: b88d 95bd 52fb bf3d 0acf 6fbc 6390 b63c
000001a0: 91d2 cbbd bfff ec3c 8835 293d d1d8 c03d
000001b0: c6ac c13c 89d3 d7bc d97e a23d 79d2 7abd
000001c0: 137c fc3a 1450 bb3d 21c8 4fbd 5cab 5bbd
000001d0: 7a2a b4bb 98da d23d 0669 eebc df7b f13c
000001e0: c758 99bc 7b31 8cbd 6a84 77bd 26a9 b4bc
000001f0: 8aca 73bd 4fe2 fb3b f706 c33d e745 ab3d
00000200: fdd9 d53d 2a4b a83d 225a 4abd 74d4 cb3c
00000210: fa58 4f3d 8d75 8dbd 785f 4abd a3fc 2e3d
00000220: 26ea e3bb dda4 44bd 8dc7 5ebd 0754 86bc
00000230: 8306 be3b 686c 913d bdbe 8c3d 3589 443d
00000240: 4fbf 123d eb44 7c3c be01 fa3c 631b 9cbd
00000250: 05dd 823c 6ee4 4ebc e340 80bc abe4 fabc
00000260: 72cd 4abd b3ca 78bd 617b 973d f6c0 a23d
00000270: f073 a03d 1968 923d ffb6 2bbd 0cba 95bd
00000280: 01bf bfbb 1717 11bd d168 3d3d 23ec 1e3d
00000290: 772a 273b d330 5dbd 94a8 c13c 7758 363d
000002a0: 7613 0e3d 8d1f 933d f610 3bbd 97e3 733c
000002b0: 8585 573d 6812 be3d 1f79 81bc c341 92bd
000002c0: a5bb e03c 0fa6 793d f7bb 6bbd 253d a2bc
000002d0: 4a6a b6bd 92fa 91bd 18ae 36bd d8b8 413d
000002e0: c783 703d 2250 75ba b3a1 7e3d 04a2 b23b
000002f0: c9e8 20bd f7ce 1c3d f2eb 64bd 0d5b cb3d
00000300: 8081 96bd 5b5d 35bd dcf9 96bc f37e 06bd
00000310: fdfa 393b 2681 babc 17a3 babd 6a63 763d
00000320: 7d0e fd3b 1820 92bc 878e 2b3c d54f 0bbd
00000330: 4072 023d b198 3d3c a291 913d 7e35 823d
00000340: 40b0 123d a4e0 a5bd f872 40bc 358c 8ebb
00000350: eab8 2c3d e9d7 85bd b17a 94bd c10f ff3c
00000360: 2453 97bb ba24 bb3d a5cd 84bd ea7f 6c3d
00000370: 5d07 0d3d 77ae 713d f206 b7bc 890f b4bc
00000380: bd02 2f3c b89e 0abd 5939 b2bc bed8 993d
00000390: e171 9d3c 90ba 853c 80f0 913d f4a8 d7bb
000003a0: f920 1a3d 0195 1a3d 8c46 9bbd 2377 1d3d
000003b0: b70e 9bbd 0656 14bd f058 6bb8 cd3c 66bd
000003c0: b540 de3c d5c3 643d 44dd 403d c1cb 733d
000003d0: 0ded 4a3d f164 973c deff 76bd a545 5abd
000003e0: 175f 2f3c 6f8a 6bbd 94af 383d 2bfa 98bd
000003f0: a8ab 7f3d 7a2d d9bc e742 8d3d a158 10bd

linear_layer.weight f4 [1, 128]
0.06300668 0.027018912 -0.09152558 0.010800091 -0.013180837 0.09008892 0.07074852 0.050315745
-0.02178473 0.09277718 -0.096080855 0.0049881316 -0.09981987 0.071219966 -0.016967185 -0.0103745805
-0.03496596 0.062626176 0.06349632 -0.0647461 0.011806232 -0.104028225 0.04034882 0.08797151
-0.06750236 -0.06340746 -0.045413848 0.01579111 0.07671969 0.0029580963 -0.078993954 -0.06568672
0.056907598 0.08517791 0.09836631 -0.026637683 -0.04313541 -0.01640145 0.07629393 -0.041504033
-0.0058650495 0.010472185 0.07010927 -0.012880106 -0.070993334 0.102906175 0.047680996 0.07010766
0.06789586 -0.06690237 -0.052564193 -0.0853685 0.06599853 -0.081828035 0.034656134 0.08075256
0.03866478 0.09695242 0.070950344 0.0068986462 0.10627666 -0.08151507 0.06633826 0.100537606
0.01319856 0.060001694 -0.09414609 0.09771827 -0.04132464 -0.06000289 0.025461068 -0.0094895605
0.073519535 0.017743254 -0.10601145 -0.025574863 0.033438276 -0.05376701 0.060189724 0.0138832545
-0.0214097 0.005755934 -0.051860105 0.10415442 -0.09598688 -0.021648632 0.025863172 0.009340639
0.034550633 0.0035647277 -0.019434387 -0.0006472977 -0.0035241581 0.007889691 -0.06542029 -0.0062972545
0.012291502 0.011315676 -0.046720967 -0.0005074079 -0.0053538894 0.033693675 0.01376889 0.048268043
0.07177379 -0.06059335 0.03238007 0.052721974 0.038440187 -0.032013506 -0.09415482 -0.056052644
0.07106874 -0.033778183 -0.09760953 -0.01018024 -0.03932955 0.0955166 0.019131437 -0.028097114
-0.016254907 0.03477996 0.036117524 0.039697725 0.02052488 -0.09490725 -0.08704538 0.078492954
00000000: a509 813d c456 dd3c c371 bbbd ddf2 303c
00000010: 70f4 57bc 8a80 b83d 9ae4 903d e217 4e3d
00000020: e475 b2bc f601 be3d 0ac6 c4bd 7b73 a33b
00000030: 5c6e ccbd c6db 913d c4fe 8abc 25fa 29bc
00000040: 7738 0fbd 2742 803d 5c0a 823d 9a99 84bd
00000050: ed6e 413c c00c d5bd ce44 253d 682a b43d
00000060: ad3e 8abd c5db 81bd df03 3abd 5c5c 813c
00000070: 361f 9d3d 9fdc 413b 95c7 a1bd c286 86bd
00000080: f117 693d c271 ae3d 4774 c93d 4537 dabc
00000090: c1ae 30bd 555c 86bc fe3f 9c3d 2200 2abd
000000a0: 9a2f c0bb 8793 2b3c 7395 8f3d 1507 53bc
000000b0: f464 91bd 79c0 d23d 264d 433d 9b94 8f3d
000000c0: fc0c 8b3d 1c04 89bd 8d4d 57bd aed5 aebd
000000d0: 3d2a 873d 7595 a7bd 97f3 0d3d 9961 a53d
000000e0: f65e 1e3d fe8e c63d 6a4e 913d 0a0e e23b
000000f0: 94a7 d93d 5ff1 a6bd 5bdc 873d a9e6 cd3d
00000100: c63e 583c 56c4 753d aacf c0bd 8420 c83d
00000110: 0744 29bd 97c5 75bd bb93 d03c 1a7a 1bbc
00000120: 6991 963d 4d5a 913c 881c d9bd 6082 d1bc
00000130: 93f6 083d cc3a 5cbd 8089 763d 9776 633c
00000140: 6563 afbc 469c bc3b 436b 54bd ea4e d53d
00000150: c594 c4bd 7958 b1bc 01df d33c 7b09 193c
00000160: f784 0d3d 359e 693b dd34 9fbc 6aaf 29ba
00000170: 90f5 66bb c343 013c 13fb 85bd 3359 cebb
00000180: 4c62 493c 6365 393c 7c5e 3fbd 9103 05ba
00000190: ae6f afbb 6102 0a3d e996 613c b6b4 453d
000001a0: 23fe 923d bc30 78bd f7a0 043d fff2 573d
000001b0: 7573 1d3d 9820 03bd 3ed4 c0bd 7597 65bd
000001c0: 7d8c 913d fe5a 0abd 81e7 c7bd 05cb 26bc
000001d0: 0618 21bd 359e c33d 88b9 9c3c eb2b e6bc
000001e0: 0329 85bc 6e75 0e3d f8ef 133d 159a 223d
000001f0: cb23 a83c bb5e c2bd d944 b2bd eac0 a03d
